IPL Score  prediction/best_model.pth (torch, 681591 bytes, 7 tensors)

0.weight f4 [512, 9]
-0.007392168 -0.07636532 -0.17235145 0.16522786 -0.03696862 -0.24091956 -0.23102348 -0.1960547
-0.19987056 -0.2882112 -3.6550384 1.1573015 -2.4161422 0.6814255 -1.6877693 1.2480772
-0.25092375 -2.1472135 0.27825943 -0.9044476 -2.4132857 0.46837458 -0.8946603 0.40635726
-0.21436866 -0.36060238 0.011098252 -0.2555657 -0.026492817 -0.1482107 -0.27713114 -0.14223398
-0.2281252 0.3344262 0.17784259 0.10964605 2.6212623 7.301903 -25.730059 1.4036585
0.91214114 -2.5579174 0.8259916 -0.42188305 -0.30631754 0.742977 -4.146688 -1.7752697
0.108893774 -1.8745624 -1.0136024 0.6510669 -0.9082344 -0.78038794 -0.076025814 0.08571119
0.17464235 -0.34523514 -0.027876278 0.29530594 -0.072627455 -0.09816522 0.08384037 -0.023755476
-3.5947287 -0.24311651 0.5091878 -3.2089627 -1.0333405 0.021636058 -0.43851483 -0.3120532
0.04940426 -0.20097029 0.19212995 -0.3325576 0.17778336 -0.08770545 -0.32131168 0.06064504
-0.128645 0.060093973 -0.020530129 0.012253497 -0.27160197 0.06496662 0.23774482 -0.22119091
0.13742107 -0.014904692 -0.25828746 -0.04880894 -0.22975819 -0.9429279 -0.045297887 0.52411604
-0.313949 0.06125242 -0.15380082 -0.14520974 -0.17647538 0.16311267 -0.2766122 0.06651204
0.13008597 -0.49030945 0.09167634 0.077633604 -0.18289667 0.11819891 -0.21843526 0.092638604
0.26993278 -0.038235016 -0.23390311 0.00013929927 0.19232745 -0.018634818 -0.03870548 -0.06624776
-0.9208252 -0.33081567 0.51162547 0.14004643 -0.034113444 -0.028886715 -0.12131717 -0.19898723
-0.27828068 0.23739216 0.100869454 -0.31217653 -0.115079015 -0.220597 0.19030792 -0.14923623
-1.8058677 0.23882917 -2.7661085 1.611497 -3.1248438 -0.12742382 -0.8593306 -1.4395138
-1.8147677 0.537791 -2.0073206 -1.5275375 -0.36973032 -0.81588423 1.9866453 -0.03219451
-0.4530778 -2.580774 -0.6675574 -0.042342324 -2.5615728 0.9662793 -1.9399776 0.2264024
0.26379645 -0.04328608 0.0076384344 -0.026476905 -0.0036376405 0.39204186 -0.35311714 -0.16655722
-0.10344908 -0.069106415 -0.09719949 0.062107224 -0.26992887 0.021789707 -0.40711156 -0.2854901
0.076890714 0.108143955 -0.3128309 -0.057161078 -1.356616 -0.2697514 0.4101749 -1.3068362
0.17313942 -1.0820906 -0.39007857 -2.0839252 -0.90442556 -2.6839168 -1.3697919 -3.828412
-6.4177847 -12.763571 -8.104583 -3.5097148 -1.1059567 1.7323952 -0.751518 -0.23980702
-1.8129514 1.1009394 -2.7810354 -0.6970318 -0.5540363 -0.65420496 -0.5732058 0.74119
-0.95986897 0.033911504 1.0276598 0.6884869 -1.3032612 -1.866727 -0.48188388 -0.19555423
0.008067886 0.10655913 0.063991524 0.005936261 0.12558365 -0.35874197 -0.19496371 -0.21236436
-0.15203965 -1.8121771 -0.19641615 0.062001575 0.16451631 1.3160819 -0.6652999 -0.14341795
-0.6832439 -0.36055788 -4.2271204 -0.25926396 -0.99388283 -11.984268 9.431073 -3.5374942
2.0766373 -4.5092974 -2.250838 -0.13250722 0.05658494 -0.04611831 0.21521778 -0.2978566
0.007136363 -0.12851429 -0.002515354 -0.09910514 0.08985076 0.19463217 -0.14232399 0.19622608
00000000: 003a f2bb 6c65 9cbd e67c 30be 7e31 293e
00000010: 686c 17bd 9eb3 76be 6b91 6cbe 90c2 48be
00000020: deaa 4cbe 6b90 93be 26ec 69c0 7522 943f
00000030: 13a2 1ac0 e771 2e3f d308 d8bf fec0 9f3f
00000040: 1479 80be f26b 09c0 0578 8e3e e189 67bf
00000050: 4673 1ac0 cbce ef3e 7508 65bf 0f0e d03e
00000060: 7583 5bbe e0a0 b8be 71d5 353c 82d9 82be
00000070: 7707 d9bc 8cc4 17be 22e4 8dbe c9a5 11be
00000080: a799 69be e939 ab3e 5e1c 363e 1c8e e03d
00000090: c3c2 2740 30a9 e940 29d7 cdc1 15ab b33f
000000a0: 1582 693f ebb4 23c0 2f74 533f 0e01 d8be
000000b0: a7d5 9cbe be33 3e3f abb1 84c0 0a3c e3bf
000000c0: b303 df3d a9f1 efbf b9bd 81bf 52ac 263f
000000d0: 0d82 68bf 81c7 47bf 6cb3 9bbd 5989 af3d
000000e0: 72d5 323e a9c2 b0be cb5c e4bc 5732 973e
000000f0: b4bd 94bd d90a c9bd 80b4 ab3d d89a c2bc
00000100: 0910 66c0 89f3 78be 225a 023f a55f 4dc0
00000110: 8044 84bf 1a3e b13c 0485 e0be 70c5 9fbe
00000120: 1f5c 4a3d 28cb 4dbe b7bd 443e fd44 aabe
00000130: d70c 363e ea9e b3bd f782 a4be ef66 783d
00000140: 84bb 03be 1925 763d cd2e a8bc e4c2 483c
00000150: 6a0f 8bbe 380d 853d 6173 733e df7f 62be
00000160: 1cb8 0c3e cf32 74bc 413e 84be e2eb 47bd
00000170: bb45 6bbe b963 71bf 478a 39bd 782c 063f
00000180: ecbd a0be d1e3 7a3d f67d 1dbe ddb1 14be
00000190: f6b5 34be 0207 273e 1da0 8dbe 7737 883d
000001a0: 4235 053e d709 fbbe cec0 bb3d 5efe 9e3d
000001b0: 4449 3bbe 4512 f23d 7ead 5fbe 4fb9 bd3d
000001c0: a134 8a3e 529c 1cbd 4c84 6fbe dd10 1239
000001d0: 7df1 443e 0ca8 98bc a389 1ebd e8ac 87bd
000001e0: 33bb 6bbf ac60 a9be e3f9 023f 5568 0f3e
000001f0: 8aba 0bbd d5a3 ecbc 2375 f8bd 4fc3 4bbe
00000200: ce7a 8ebe ee16 733e a594 ce3d 9ad5 9fbe
00000210: 8cae ebbd 2ee4 61be 14e0 423e 62d1 18be
00000220: ac26 e7bf a28f 743e ec07 31c0 8945 ce3f
00000230: 71fd 47c0 647b 02be 17fd 5bbf fd41 b8bf
00000240: 4f4a e8bf acac 093f f177 00c0 5986 c3bf
00000250: 4b4d bdbe cadd 50bf 654a fe3f 64de 03bd
00000260: d0f9 e7be 672b 25c0 0be5 2abf 256f 2dbd
00000270: cff0 23c0 155e 773f 3051 f8bf 08d6 673e
00000280: 5410 873e bf4c 31bd d54b fa3b 18e6 d8bc
00000290: 7b65 6ebb b6b9 c83e c5cb b4be fa8d 2abe
000002a0: 1cdd d3bd aa87 8dbd 8710 c7bd 2564 7e3d
000002b0: 1e34 8abe 5480 b23c ed70 d0be c22b 92be
000002c0: e178 9d3d 947a dd3d 5f2b a0be bc21 6abd
000002d0: 98a5 adbf db1c 8abe 7202 d23e 6946 a7bf
000002e0: 764b 313e f281 8abf 61b8 c7be 085f 05c0
000002f0: 6f88 67bf 4bc5 2bc0 5755 afbf b404 75c0
00000300: 7e5e cdc0 9637 4cc1 5fac 01c1 2b9f 60c0
00000310: fd8f 8dbf 20bf dd3f 7c63 40bf f98f 75be
00000320: cb0e e8bf 95eb 8c3f 7cfc 31c0 ad70 32bf
00000330: 53d5 0dbf fa79 27bf 9ebd 12bf a1be 3d3f
00000340: f9b9 75bf cae6 0a3d 5b8a 833f ad40 303f
00000350: 43d1 a6bf e9f0 eebf 7cb9 f6be 5e3f 48be
00000360: 2b2f 043c ac3b da3d fd0d 833d f784 c23b
00000370: 0099 003e 07ad b7be 91a4 47be 0b76 59be
00000380: 48b0 1bbe 6bf5 e7bf 5121 49be 5df5 7d3d
00000390: f776 283e 5f75 a83f 1851 2abf 28dc 12be
000003a0: 12e9 2ebf 0b9b b8be 9244 87c0 3fbe 84be
000003b0: 1b6f 7ebf 90bf 3fc1 ade5 1641 4e66 62c0
000003c0: a0e7 0440 2a4c 90c0 bb0d 10c0 f9af 07be
000003d0: 9cc5 673d 8ee6 3cbd 0d62 5c3e a980 98be
000003e0: 27d8 e93b 4099 03be a3d8 24bb a3f7 cabd
000003f0: ad03 b83d a84d 473e 61bd 11be 7def 483e

0.bias f4 [512]
-0.30972454 -0.91088295 -0.4423253 -0.24891569 -3.622041 0.0054780776 -0.39676803 0.15256469
-0.38164884 -0.35355967 -0.1499859 -0.302575 -0.47217858 -0.16104329 -0.35733217 -0.64089054
-0.26121294 -0.4069752 -0.037520282 -0.095726 -0.031816237 -0.81740105 -0.87641335 -0.6771007
-0.13071956 -0.38320157 -1.4790769 -0.10267281 -1.4840592 0.18322174 -0.097691715 -0.089489564
-0.045482844 -1.6035955 -0.28186047 0.29522583 -0.17023438 0.07467147 3.0818186 0.13822661
-0.20663661 0.072593994 -0.3561116 -1.0504447 -0.40963593 -0.016665732 -0.77790546 -0.065078415
-1.0349035 -5.3322587 -0.59315026 -0.066129036 -0.13783202 -0.862921 -1.0002859 -0.08116531
-0.32448107 -0.2612477 -0.22825043 -0.40880406 -0.6594359 -1.9216886 -0.10917736 -0.13583551
-0.711396 -0.5290975 -0.183311 -1.2154123 0.0005244976 0.026978323 -0.3385905 -0.14667642
-0.0045096707 -0.31896773 -0.021458207 -0.2487654 -0.022210427 0.1730928 -0.5437192 6.4785223
-0.09170203 0.20554286 -0.070814654 -0.01903767 -0.22911546 0.3803491 0.05528074 -0.30321985
-0.284557 -0.36848226 5.179897 -0.32490474 -0.19761284 0.6401073 -0.03537051 -0.07304617
-0.29110208 0.37104225 -1.0727675 3.1321228 -0.8751444 -0.15787359 -0.092036575 -0.09101991
-0.4678715 -0.18561517 -0.33094117 -0.12933826 -0.23267962 -0.7316239 -0.3548134 -0.045039736
-0.0015209102 -0.3162749 -0.14952324 0.018448347 -0.09542345 -0.2654598 -0.21207495 0.092577256
-0.2560076 -0.26419875 0.038688824 -0.49964058 -0.32516226 -0.37742782 0.7544092 -0.077532746
-0.14795385 -0.021412894 -0.034752157 -0.004124154 0.027226565 -0.16028021 -0.07944456 -0.25175738
-0.23677428 -0.33504957 -0.42678884 -0.94180816 -0.78277904 -0.043617886 0.13948515 -0.47993734
-0.070014544 -0.6782385 -0.2177016 0.031269852 0.013057698 -0.14524332 -0.09526716 -0.31427416
-0.41203535 -0.7715205 -0.27309942 -0.035997063 -0.5791469 -0.095453665 -0.017082531 -0.3124799
3.5338788 -0.3062252 0.48027644 -0.22017603 -1.070058 0.008896565 0.63824254 -0.041081794
-0.15520923 -0.2739311 -0.3475098 -0.061538793 -0.10030261 0.050229516 -0.13338315 -0.218927
-0.4118361 -0.52566236 -3.4134417 -0.9693656 -0.14467435 -0.4158704 -0.27267882 0.015618201
-0.19275479 -0.3939407 -0.25193527 -0.13706107 0.0005809079 -0.14889403 -0.4213574 0.007963876
7.6221714 -0.07198302 0.4180588 0.016783576 -0.023486422 -0.07312811 -0.14132842 0.057000183
-0.48287904 -1.1571357 -0.45930588 -0.033685107 -0.2803607 0.47390664 -0.13326941 -0.22960888
-0.1368428 -0.22069201 -0.26650655 -0.14469562 -0.145527 -0.23730509 -0.19195692 -0.37111032
-0.9228285 -0.2343558 -0.34721634 -0.21864188 -0.43451762 -0.121419035 -0.2255129 0.02091108
-0.8300407 -0.70674 -0.18507734 0.04346258 0.17561735 -0.113191225 -0.7839448 0.6728517
-0.106287464 -0.29486772 -0.21068366 -0.08475469 -0.118928604 -0.078568675 -2.217508 -0.37278822
1.9217273 0.34522423 -0.12405953 -0.33312583 -0.35265106 1.8763949 -0.2260003 -0.2114086
1.2664771 -0.6080023 -0.11612071 -0.34880757 -0.13595405 -1.12171 0.21517935 -0.5297404
00000000: 3794 9ebe a02f 69bf 7678 e2be c1e3 7ebe
00000010: 85cf 67c0 7281 b33b 2e25 cbbe eb39 1c3e
00000020: 7a67 c3be c605 b5be e795 19be 1ceb 9abe
00000030: 64c1 f1be 88e8 24be 3ef4 b6be 6711 24bf
00000040: b4bd 85be 0e5f d0be deae 19bd fe0b c4bd
00000050: be51 02bd 3241 51bf a05c 60bf 7956 2dbf
00000060: 59db 05be ff32 c4be 6452 bdbf 1f46 d2bd
00000070: a7f5 bdbf 7b9e 3b3e 9812 c8bd 4e46 b7bd
00000080: 384c 3abd 9e42 cdbf 0450 90be d727 973e
00000090: ec51 2ebe 5bed 983d 843c 4540 478b 0d3e
000000a0: 8c98 53be 29ac 943d 4254 b6be f974 86bf
000000b0: cdbb d1be 9386 88bc d024 47bf d547 85bd
000000c0: b877 84bf dda1 aac0 b2d8 17bf a96e 87bd
000000d0: d623 0dbe 64e8 5cbf 5e09 80bf 003a a6bd
000000e0: 6222 a6be 42c2 85be 7bba 69be c44e d1be
000000f0: cbd0 28bf e4f9 f5bf 6198 dfbd 7718 0bbe
00000100: 0c1e 36bf ef72 07bf e1b5 3bbe a192 9bbf
00000110: 707e 093a a501 dd3c bc5b adbe 5832 16be
00000120: dcc5 93bb bd4f a3be 1fc9 afbc 5bbc 7ebe
00000130: a4f2 b5bc 3d3f 313e 2e31 0bbf 0e50 cf40
00000140: 46ce bbbd d479 523e 4607 91bd e3f4 9bbc
00000150: 3e9d 6abe 1ebd c23e 0f6e 623d a23f 9bbe
00000160: 75b1 91be b5a9 bcbe b7c1 a540 ea59 a6be
00000170: 055b 4abe 12de 233f abe0 10bd 3b99 95bd
00000180: 550b 95be 40f9 bd3e 7250 89bf b374 4840
00000190: 7709 60bf 9da9 21be ac7d bcbd a668 babd
000001a0: da8c efbe e711 3ebe 1f71 a9be 4071 04be
000001b0: 9143 6ebe b44b 3bbf 1aaa b5be 967b 38bd
000001c0: 4759 c7ba c9ee a1be 9f1c 19be fd20 973c
000001d0: 5f6d c3bd 59ea 87be 2d2a 59be 2599 bd3d
000001e0: 6e13 83be 0f45 87be 2c78 1e3d e4d0 ffbe
000001f0: ab7b a6be 383e c1be f620 413f 7dc9 9ebd
00000200: 3781 17be 186a afbc 4758 0ebd e923 87bb
00000210: 3f0a df3c 7f20 24be d4b3 a2bd 58e6 80be
00000220: f574 72be 9e8b abbe 1184 dabe 571a 71bf
00000230: 3564 48bf aba8 32bd 32d5 0e3e 59ba f5be
00000240: c963 8fbd 0aa1 2dbf 2bed 5ebe d114 003d
00000250: f4ef 553c aaba 14be 6e1b c3bd 8be8 a0be
00000260: 4cf6 d2be 5e82 45bf b0d3 8bbe a871 13bd
00000270: f942 14bf 367d c3bd aaf0 8bbc 5efd 9fbe
00000280: 122b 6240 8dc9 9cbe cbe6 f53e d375 61be
00000290: a9f7 88bf e6c2 113c dd63 233f 6245 28bd
000002a0: 2bef 1ebe b240 8cbe ceec b1be 1a10 7cbd
000002b0: 746b cdbd 77bd 4d3d 9895 08be 662e 60be
000002c0: 2edc d2be cf91 06bf d475 5ac0 5828 78bf
000002d0: 8325 14be f7ec d4be 8f9c 8bbe 7ce3 7f3c
000002e0: 8361 45be 98b2 c9be a9fd 80be bd59 0cbe
000002f0: 1248 183a ad77 18be 28bc d7be eb7a 023c
00000300: d4e8 f340 d56b 93bd ce0b d63e b67d 893c
00000310: 9966 c0bc 31c4 95bd 66b8 10be 0679 693d
00000320: ec3b f7be 061d 94bf 242a ebbe 65f9 09bd
00000330: 708b 8fbe e4a3 f23e c777 08be 971e 6bbe
00000340: 8520 0cbe 16fd 61be 8c73 88be 172b 14be
00000350: 0805 15be 1b00 73be 5b90 44be 2c02 bebe
00000360: 7d3e 6cbf f8fa 6fbe 57c6 b1be a8e3 5fbe
00000370: 1879 debe 8baa f8bd dbec 66be b74d ab3c
00000380: 8c7d 54bf eaec 34bf ea84 3dbe d105 323d
00000390: 09d5 333e cdd0 e7bd 9bb0 48bf 0240 2c3f
000003a0: 3ead d9bd e7f8 96be 75bd 57be de93 adbd
000003b0: d790 f3bd 9de8 a0bd a7eb 0dc0 19de bebe
000003c0: 29fb f53f 3bc1 b03e ec12 febd 788f aabe
000003d0: ae8e b4be b52d f03f 9f6c 67be 7f7b 58be
000003e0: ec1b a23f 0aa6 1bbf b2d0 edbd e896 b2be
000003f0: 8a37 0bbe 3194 8fbf fa57 5c3e 119d 07bf

2.weight f4 [256, 512]
-0.0026341528 0.01706412 -0.041674554 -0.032811612 0.022573354 0.009465175 -0.044284746 -0.09775045
-0.0082794465 -0.041728508 -0.024096193 0.0062842313 -0.05818645 0.0033118434 -0.02545108 0.04930892
0.030727508 -0.042217657 -0.018402565 -0.029013252 -0.06096068 0.023930542 -0.0016686801 -0.05788293
0.03815486 -0.030254746 -0.010276489 -0.042266022 -0.039183855 0.007957027 -0.056637723 0.0017972381
-0.02360861 0.009162795 -0.035216108 0.003607614 0.014273144 0.011797997 -0.07191489 0.030626647
0.037483055 -0.003359368 -0.04437852 -0.017165963 -0.007765318 -0.028620698 -0.023854693 -0.040651515
-0.032025773 -0.013457073 -0.011832355 -0.012095186 -0.042762544 0.04359131 -0.023783408 -0.022493942
0.0329664 -0.03687238 -0.05854585 -0.044105712 0.0015760317 -0.05817418 0.015663965 0.0141447345
0.022659352 0.017215647 -0.013762206 -0.032010585 0.0052518006 -0.036831725 0.0049369116 -0.021846483
0.027328942 0.01583183 -0.010522558 0.025911916 -0.03399607 0.035788774 -0.009568613 -0.046322387
-0.021983478 -0.042063225 -0.024747407 -0.04605747 -0.04999882 0.0016397407 -0.022594187 0.025147993
-0.028445566 -0.038389556 -0.05750616 0.03806347 0.01884917 -0.03244219 -0.05488148 -0.024065267
-0.051405936 0.023689266 -0.06706415 0.016327165 0.028388176 -0.056186803 0.03744266 -0.0317612
-0.029769005 -0.026786722 -0.002082172 -0.028915288 0.018868567 -0.013793641 0.04240454 0.00051837484
0.0023804624 -0.027281566 -0.05507527 -0.004957944 -0.02441765 0.041598104 -0.04967034 0.011604722
-0.014815426 -0.009500073 -0.016630286 -0.030924 0.04015657 -0.031067522 -0.057783484 -0.03065634
-0.020363992 0.0196538 -0.015676798 -0.045952298 -0.05387206 0.009199141 0.01635295 -0.032999817
-0.050171793 0.0026300624 -0.025402391 -0.05801161 -0.017776698 -0.060388148 -0.04947833 -0.050743356
-0.049040314 -0.022301055 0.00061801076 0.025909116 -0.035706736 0.05520499 -0.007955616 -0.03730398
0.019713515 -0.05319639 -0.047187284 -0.047675446 0.00875688 0.022928704 -0.009475232 -0.041985393
0.033403628 0.0061564157 -0.04621625 -0.0041967444 -0.017364377 -0.049476173 0.003484276 -0.032689728
0.03748798 -0.01865377 -0.059420716 -0.03191911 -0.008187239 -0.016897073 0.015198872 0.029399436
-0.024144607 0.027136099 -0.023829892 -0.013189221 -0.05875427 -0.024113897 0.011862865 -0.0015781971
-0.02822216 0.013235476 0.011359955 -0.043005317 0.019774357 -0.0040985406 0.02313269 -0.016444216
0.00817621 0.00015148148 -0.08076838 0.05830205 -0.013540722 -0.047763955 -0.03200305 -0.011496953
-0.060761727 -0.016117027 -0.028454557 -0.0046393364 -0.009820536 0.008761622 -0.008771677 0.020956254
-0.011538273 0.015520703 0.035238523 -0.017152436 0.028270837 -0.035396792 0.033376228 0.0012773344
-0.061140798 -0.03841007 0.05730995 0.009750086 0.031409964 -0.026026608 0.024502173 -0.045335677
-0.010837611 0.01896907 -0.0012457946 0.025203224 0.023484249 0.02032645 -0.0052995957 0.029004194
-0.035442833 -0.026930382 -0.030136578 0.010817868 0.023949381 0.036958054 0.01801391 0.03504323
0.02444836 0.037425052 -0.004721638 -0.011071242 -0.02873807 -0.050184976 -0.004486233 0.013929367
-0.006856013 0.025344472 -0.019838514 -0.022631368 0.0246036 0.0013675931 -0.011559354 -0.04452117
00000000: c0a1 2cbb 0eca 8b3c f0b2 2abd 7865 06bd
00000010: c1eb b83c d213 1b3c ec63 35bd 6331 c8bd
00000020: 84a6 07bc 83eb 2abd 6165 c5bc f4eb cd3b
00000030: ea54 6ebd 830b 593b c97e d0bc 26f8 493d
00000040: 41b8 fb3c 6cec 2cbd fac0 96bc 33ad edbc
00000050: e8b1 79bd fc09 c43c 9db7 daba a716 6dbd
00000060: 4548 1c3d cdd8 f7bc b85e 28bc 231f 2dbd
00000070: 407f 20bd 315e 023c f5fc 67bd 4e91 eb3a
00000080: d866 c1bc 8c1f 163c c43e 10bd b86d 6c3b
00000090: e8d9 693c 634c 413c 1d48 93bd bce4 fa3c
000000a0: d587 193d d828 5cbb 40c6 35bd a29f 8cbc
000000b0: 3574 febb f475 eabc eb6a c3bc 3482 26bd
000000c0: 752d 03bd 0e7b 5cbc 7edc 41bc e32a 46bc
000000d0: c727 2fbd cd8c 323d 6cd5 c2bc 3745 b8bc
000000e0: c707 073d 7e07 17bd c6cd 6fbd 31a8 34bd
000000f0: d992 ce3a 0d48 6ebd b751 803c 51bf 673c
00000100: 1ba0 b93c d407 8d3c e07a 61bc 881d 03bd
00000110: 4c17 ac3b dddc 16bd d1c5 a13b 65f7 b2bc
00000120: f2e0 df3c c1b1 813c cf66 2cbc 3a45 d43c
00000130: 773f 0bbd 4097 123d acc5 1cbc 8bbc 3dbd
00000140: b216 b4bc 7d4a 2cbd 13bb cabc c2a6 3cbd
00000150: 90cb 4cbd 91ec d63a 7217 b9bc 2a03 ce3c
00000160: ad06 e9bc 5e3e 1dbd 948b 6bbd 71e8 1b3d
00000170: 9369 9a3c 1ae2 04bd 67cb 60bd 8624 c5bc
00000180: 088f 52bd fe0f c23c ee58 89bd 8cc0 853c
00000190: 528e e83c 2224 66bd 7a5d 193d 0818 02bd
000001a0: 21de f3bc d46f dbbc 0d75 08bb c1df ecbc
000001b0: 4192 9a3c b9fe 61bc 62b0 2d3d 8ce3 073a
000001c0: 8801 1c3b 977d dfbc 9b96 61bd 4076 a2bb
000001d0: 8607 c8bc c662 2a3d 2073 4bbd bb21 3e3c
000001e0: 67bc 72bc 32a6 1bbc 3d3c 88bc 5454 fdbc
000001f0: 377b 243d 5181 febc 60ae 6cbd 0123 fbbc
00000200: 63d2 a6bc 0201 a13c a16c 80bc 7a38 3cbd
00000210: f3a8 5cbd feb7 163c 9ff6 853c d12a 07bd
00000220: f080 4dbd 205d 2c3b ad18 d0bc 959d 6dbd
00000230: 70a0 91bc 9059 77bd caa9 4abd 44d8 4fbd
00000240: 7fde 48bd b4b0 b6bc 0002 223a 5b3f d43c
00000250: 3a41 12bd a11e 623d 4658 02bc 0fcc 18bd
00000260: 3d7e a13c 75e4 59bd 7447 41bd 5447 43bd
00000270: 0479 0f3c fad4 bb3c 013e 1bbc e0f8 2bbd
00000280: 3ed2 083d c2bb c93b 404d 3dbd d884 89bb
00000290: bd3f 8ebc 87a7 4abd 7358 643b aae5 05bd
000002a0: ff8c 193d cbcf 98bc 2363 73bd 9dbd 02bd
000002b0: c523 06bc bb6b 8abc b104 793c 16d7 f03c
000002c0: e9ca c5bc 864c de3c e836 c3bc 9a17 58bc
000002d0: 51a8 70bd 828a c5bc 765c 423c 82db ceba
000002e0: 2932 e7bc 9cd9 583c 1b1f 3a3c 5826 30bd
000002f0: d5fd a13c 0d4d 86bb c480 bd3c 05b6 86bc
00000300: 83f5 053c 00d7 1e39 e469 a5bd 21ce 6e3d
00000310: e8d9 5dbc 23a4 43bd a115 03bd b75d 3cbc
00000320: 4ae1 78bd db07 84bc 8819 e9bc 9305 98bb
00000330: 50e6 20bc e88c 0f3c 14b7 0fbc 73ac ab3c
00000340: 060b 3dbc 8c4a 7e3c 4556 103d 4483 8cbc
00000350: 3e98 e73c 3afc 10bd 83b5 083d 3b6c a73a
00000360: c66e 7abd e153 1dbd d7bd 6a3d d3be 1f3c
00000370: bca7 003d c135 d5bc c8b8 c83c e7b1 39bd
00000380: 3c90 31bc 0665 9b3c ee49 a3ba fe76 ce3c
00000390: 0a62 c03c a883 a63c 3ba8 adbb 349a ed3c
000003a0: 812c 11bd 1b9d dcbc fce0 f6bc 6d3d 313c
000003b0: 7e31 c43c 5461 173d e891 933c 7d89 0f3d
000003c0: ed47 c83c 034b 193d f8b7 9abb 2864 35bc
000003d0: 1a6c ebbc c38e 4dbd 4001 93bb 0038 643c
000003e0: 68a8 e0bb 369f cf3c 6184 a2bc 6b65 b9bc
000003f0: 7d8d c93c cf40 b33a 7263 3dbc d55b 36bd

2.bias f4 [256]
-0.049579296 -0.10681897 -1.1048539 -0.08751524 -0.10747679 -0.2556284 -0.39064234 -0.1536589
-0.9539211 -0.15232952 -0.06354527 -0.45734236 -1.6517689 -0.057939466 -0.4119306 -0.3679692
-0.40681 -0.6650179 -0.1793733 -0.13876495 -0.056095567 -0.55432445 -0.3408367 -0.10975879
-0.15372051 -0.121442385 -0.049738146 -0.06830165 -0.11119869 -0.26950374 -0.19857523 -0.48181272
0.5504334 0.2032433 -1.0078559 -0.10221763 -0.19114706 -0.064720854 -0.19125772 -0.39727342
-0.12974308 -0.1033612 -0.18437158 -0.14852583 -0.22910063 -1.1164662 -0.98236006 -0.12421026
-0.076509036 -0.3149969 -0.73981863 -0.78245693 -0.22547363 -1.1420828 0.03768336 -0.20847338
-0.148753 -0.18806845 -0.09259323 -0.06830486 -0.1709225 -0.255404 0.10900504 -0.18270141
-0.19116467 -0.10050926 -0.17526142 -0.28441045 -0.12044379 -0.28258544 -0.0018907872 -0.3434356
-0.115714714 -0.05086636 -0.08045608 -0.52143943 -0.13076852 0.17289715 -1.5879129 -0.19158083
-0.052223984 -0.13082258 -0.05580825 0.052644927 -0.14909597 -0.078669704 -0.12819459 -0.24747771
-0.5746941 -0.07950662 -0.19285549 -0.29227567 -0.111436225 -0.14368112 -0.30440652 -0.16770291
-0.12762149 -1.283521 -0.0103239585 -0.11121697 -0.7028868 -0.09280008 -0.14900142 -0.35410398
-0.9875701 -0.068577155 -1.5196319 -0.99185723 -0.094802156 -0.08722747 -0.075814284 -0.14023137
-0.098723374 -0.08619979 -0.06574679 -1.764182 -0.20054287 -0.5222913 -0.89671993 -0.4885778
-0.14766195 -0.15754873 -0.14283413 -0.5097824 -0.16048644 0.8841393 -0.21159558 9.998584
-0.05206182 -0.24560016 -0.09634096 -0.2623477 -0.16417256 -0.6716611 -0.18331777 -0.17625766
-0.9844614 -0.27607587 -0.079631366 -0.23249829 -0.23346134 -1.7362769 -0.20659247 -0.06918987
-0.10872262 -1.1460046 -0.20278127 -0.56356496 -0.07782841 -0.24349277 -0.09254791 -0.06791539
-0.1521339 -0.34792337 -0.0909099 -0.094176516 -0.23956373 -0.16216601 -0.11646454 -0.30412465
-0.13694833 -0.31482118 -0.115409106 -0.056090392 -0.04471549 -0.18794006 -0.15410525 -0.92981875
-0.11731497 0.36346287 0.070991054 -0.83741 -0.07603619 -1.4540485 -1.2065814 -0.12722284
-0.06591848 -0.049580652 -1.4226665 -0.10815839 -1.0362718 -0.22601488 -0.097450964 -0.9223611
-0.13677737 -0.11053208 -0.027347233 -0.19122134 -0.08982404 -1.6409532 -0.720931 -1.1783006
-0.30406213 -0.21442851 -0.189783 -0.09596404 -0.37180632 -0.21314475 -0.071711555 -0.16338769
-0.2681663 -1.3229377 -0.03637323 -0.97743434 -1.8407497 -0.09862718 -1.3698603 -0.105436765
-0.071149975 -0.22028893 -0.09854754 -0.12195544 -1.1058837 -0.10848791 -0.86389506 -1.1144395
-0.35066527 -0.8077916 -0.27141592 -1.0112749 -1.2251236 -0.5507421 -0.19747248 -0.15559866
-0.04372186 -0.96986234 -0.22568136 -0.09477415 -0.06741195 -0.0953003 -0.060963657 -0.09489768
-0.2795191 -0.13054942 -0.27762672 -0.19289687 -0.5909821 -0.08420192 -0.15384798 -0.14997578
-0.97340274 -0.2827691 -0.087153204 -0.118454345 -0.4870745 -0.25155026 -0.13738123 -0.6875934
-1.0750902 -0.23074012 -0.034966614 -0.20198877 -0.08886426 -0.17145132 -0.039042253 -0.12847976
00000000: a913 4bbd e7c3 dabd da6b 8dbf 313b b3bd
00000010: cb1c dcbd bae1 82be 4602 c8be c258 1dbe
00000020: 2c34 74bf 45fc 1bbe 0624 82bd c728 eabe
00000030: 2a6d d3bf ef51 6dbd 91e8 d2be 7566 bcbe
00000040: 6649 d0be 9d3e 2abf a2ad 37be 6618 0ebe
00000050: 77c4 65bd 35e8 0dbf 2682 aebe 37c9 e0bd
00000060: e968 1dbe c9b6 f8bd 3aba 4bbd bce1 8bbd
00000070: 24bc e3bd 65fc 89be 4e57 4bbe 28b0 f6be
00000080: 34e9 0c3f 031f 503e 6c01 81bf 7a57 d1bd
00000090: 0ebc 43be 5e8c 84bd 10d9 43be 6c67 cbbe
000000a0: 5fdb 04be 09af d3bd e7cb 3cbe 2817 18be
000000b0: 5b99 6abe 5de8 8ebf f37b 7bbf f361 febd
000000c0: c5b0 9cbd 4647 a1be c164 3dbf 194f 48bf
000000d0: 8fe2 66be c52f 92bf de59 1a3d 0c7a 55be
000000e0: b552 18be 0495 40be 85a1 bdbd 6be3 8bbd
000000f0: 4f06 2fbe 50c4 82be 093e df3d 1416 3bbe
00000100: acc0 43be cdd7 cdbd bb77 33be 3f9e 91be
00000110: 3cab f6bd 0aaf 90be 4ad4 f7ba cad6 afbe
00000120: d6fb ecbd 3f59 50bd 28c6 a4bd 0e7d 05bf
00000130: 2fe8 05be f30b 313e bb40 cbbf c42d 44be
00000140: d1e8 55bd 5bf6 05be 3197 64bd 35a2 573d
00000150: 9dac 18be 951d a1bd 7145 03be cc6a 7dbe
00000160: 271f 13bf 5ed4 a2bd e97b 45be 28a5 95be
00000170: ad38 e4bd 2521 13be 2cdb 9bbe 50ba 2bbe
00000180: 35af 02be 6b4a a4bf d225 29bc b9c5 e3bd
00000190: 64f0 33bf f80d bebd d493 18be 1e4d b5be
000001a0: 65d1 7cbf 2e72 8cbd 4c83 c2bf 5bea 7dbf
000001b0: a227 c2bd 51a4 b2bd 8544 9bbd d098 0fbe
000001c0: 7b2f cabd 8489 b0bd 41a6 86bd b7d0 e1bf
000001d0: 1c5b 4dbe e2b4 05bf 708f 65bf df26 fabe
000001e0: b234 17be 7454 21be 1c43 12be 1981 02bf
000001f0: 8f56 24be f456 623f 83ac 58be 33fa 1f41
00000200: c63e 55bd 9c7e 7bbe 694e c5bd 7052 86be
00000210: da1c 28be fbf1 2bbf a7b7 3bbe e37c 34be
00000220: aa05 7cbf d159 8dbe c515 a3bd 0814 6ebe
00000230: 7d10 6fbe 523e debf fa8c 53be 6bb3 8dbd
00000240: f7a9 debd 47b0 92bf e5a5 4fbe cb45 10bf
00000250: 8064 9fbd 2b56 79be c289 bdbd 3917 8bbd
00000260: fdc8 1bbe 0323 b2be f82e babd 9edf c0bd
00000270: 3250 75be d90e 26be f684 eebd 3ab6 9bbe
00000280: 2f3c 0cbe 3e30 a1be 9c5b ecbd 0abf 65bd
00000290: 9727 37bd 5c73 40be c4cd 1dbe 9a08 6ebf
000002a0: d542 f0bd ce17 ba3e c263 913d 8060 56bf
000002b0: ddb8 9bbd 431e babf 4271 9abf b446 02be
000002c0: 4500 87bd 1515 4bbd f019 b6bf 2582 ddbd
000002d0: 8ea4 84bf 7270 67be 5f94 c7bd db1f 6cbf
000002e0: 5e0f 0cbe a55e e2bd 4e07 e0bc 87cf 43be
000002f0: abf5 b7bd c10a d2bf ef8e 38bf 8ed2 96bf
00000300: 08ae 9bbe 2693 5bbe 7a56 42be cb88 c4bd
00000310: 665d bebe 9e42 5abe 82dd 92bd 1a4f 27be
00000320: 184d 89be 0656 a9bf 19fc 14bd 2339 7abf
00000330: b09d ebbf 0cfd c9bd 9557 afbf 3bef d7bd
00000340: 14b7 91bd 6c93 61be 4bd3 c9bd c6c3 f9bd
00000350: 998d 8dbf e92e debd 3a28 5dbf f4a5 8ebf
00000360: 668a b3be 6ecb 4ebf 07f7 8abe 7571 81bf
00000370: dad0 9cbf 6ffd 0cbf 3a36 4abe 4155 1fbe
00000380: b115 33bd e648 78bf 0419 67be f318 c2bd
00000390: 470f 8abd ce2c c3bd 07b5 79bd b759 c2bd
000003a0: 211d 8fbe bfae 05be 1725 8ebe c286 45be
000003b0: 9a4a 17bf 0e72 acbd 538a 1dbe 4093 19be
000003c0: ec30 79bf 1dc7 90be 617d b2bd 3198 f2bd
000003d0: d461 f9be 32cb 80be aaad 0cbe 1f06 30bf
000003e0: 8e9c 89bf 2347 6cbe 2739 0fbd 25d6 4ebe
000003f0: 77fe b5bd ef90 2fbe c5ea 1fbd 3390 03be

4.weight f4 [128, 256]
0.034064956 -0.010702495 0.018770104 -0.026320497 -0.023093686 -0.08065399 0.043085914 0.03522583
0.013397984 0.019560969 -0.02109125 -0.0874357 -0.026553668 0.010409638 0.0070456015 -0.05391165
-0.15204656 -0.06987921 -0.04457817 0.040957242 -0.0038345903 -0.051610637 0.0029798672 -0.050017368
0.05527693 -0.117852576 0.0035767257 -0.07955502 -0.064023376 0.0649322 -0.051461477 -0.045733966
-0.022221494 -0.059287358 -0.13266966 -0.07276487 0.02881273 -0.075574405 -0.023552962 0.027847571
-0.059073314 0.023985425 0.030684836 -0.0034912708 -0.046526454 0.030816838 -0.15178584 -0.041456185
-0.021856312 -0.035403255 -0.06948076 -0.044308946 0.032371614 -0.90200865 -0.098675326 -0.09574962
-0.028633168 0.151365 -0.0337813 0.04194604 -0.036696397 -0.07119661 -0.08347721 0.07255638
-0.06201683 0.050452363 0.0015297213 -0.016546981 -0.05388149 -0.043664865 0.03473364 0.011907399
-0.06685083 0.014604227 0.005287856 0.0250147 -0.0031133965 -0.013164527 -0.0705825 0.019956311
-0.013703975 -0.0040432066 -0.070483305 -0.03808461 -0.021777323 -0.034589678 -0.06830144 -0.056147628
0.06890316 -0.029052822 0.022462077 -0.08621818 -0.02527634 -0.034792103 -0.039130837 -0.04706832
0.037527736 -0.0842888 -0.034567144 -0.034254666 -0.14067253 -0.053913087 -0.00058685243 0.010427234
0.01679963 -0.014311068 -0.028225359 -0.0027956183 -0.012265009 -0.015341774 0.041854434 0.015737275
0.00064724876 -0.12312623 0.0041331053 -0.039406225 -0.032539528 -0.02484792 -0.22505845 -0.019903328
-0.06449323 -0.09710442 -0.0016364865 -0.0050997757 -0.032607004 -0.19135062 -0.02156791 -1.0806715
-0.023816876 0.012093966 -0.013204907 -0.030295378 -0.0577951 -0.06308934 -0.014256878 -0.06795021
0.030829117 -0.0492649 0.0021568898 -0.07888872 -0.082466915 -0.0811181 -0.044257965 0.07355225
-0.003884308 -0.0021311594 -0.055835355 0.013672496 0.058797967 -0.082369335 0.055305954 -0.00083994603
-0.017139766 0.0412579 0.028772349 0.033399656 -0.04629357 -0.059417002 -0.03786567 0.031810068
0.0037916154 0.078969695 -0.038247906 -0.03360598 0.009570144 0.007145033 -0.077680826 0.047562256
0.0046038926 -0.20363802 -0.07480111 -0.015292399 0.025383722 -0.091732524 -0.029865012 0.06601845
-0.049693257 -0.008064964 -0.02733258 -0.036172308 0.03483004 0.015871312 0.051502258 -0.07906088
0.032089435 -0.04081973 0.044342093 -0.0021900043 0.046460554 0.013409776 -0.06835761 -0.0039318735
-0.030427985 -0.045664527 0.039182432 -0.04416932 -0.0087562725 -0.03973887 0.023249803 0.037608508
-0.055022765 -0.032810245 -0.025434215 -0.019274171 -0.050985392 0.016756197 -0.014903794 -0.04102836
0.011618234 -0.07350556 -0.03973154 0.07511995 -0.07956144 -0.037993677 -0.12624311 0.029721722
-0.0011295201 -0.95967394 -0.014051391 -0.014124058 3.4693992e-05 -0.06727134 -0.0110559715 -0.03236494
-0.027059391 0.01269448 -0.004366457 -0.023153342 0.018080235 0.03832385 -0.022555964 -0.052862618
0.040346183 -0.007481608 -0.0015860589 0.03210026 -0.027175874 0.0038163718 0.041379776 -0.028248172
-0.041241966 -0.0628444 0.04901532 -0.02672807 -0.024230676 0.01106421 0.037372716 -0.036990367
-0.03845345 0.012699761 0.029320901 -0.05104553 -0.043647505 0.04141104 -0.041056387 0.0357508
00000000: b287 0b3d 8559 2fbc c3c3 993c 159e d7bc
00000010: f82e bdbc eb2d a5bd db7a 303d f648 103d
00000020: 3883 5b3c 533e a03c 8fc7 acbc 7d11 b3bd
00000030: 1487 d9bc 308d 2a3c cade e63b 76d2 5cbd
00000040: 18b2 1bbe d51c 8fbd 9997 36bd c8c2 273d
00000050: c04d 7bbb ad65 53bd e049 433b 03df 4cbd
00000060: 106a 623d b15c f1bd 8067 6a3b beed a2bd
00000070: b01e 83bd 2cfb 843d 45c9 52bd 8a53 3bbd
00000080: da09 b6bc 4dd7 72bd 8eda 07be c005 95bd
00000090: ad08 ec3c c1c6 9abd 24f2 c0bc 9720 e43c
000000a0: dcf6 71bd 157d c43c c45e fb3c cecd 64bb
000000b0: 8692 3ebd 9873 fc3c bf6d 1bbe f6cd 29bd
000000c0: 020c b3bc 0103 11bd ee4b 8ebd 4c7d 35bd
000000d0: 1998 043d 0aea 66bf 4a16 cabd 6018 c4bd
000000e0: 1b90 eabc 6dff 1a3e 435e 0abd 9ccf 2b3d
000000f0: f64e 16bd 87cf 91bd 19f6 aabd 7098 943d
00000100: 5c05 7ebd 23a7 4e3d ee80 c83a 898d 87bc
00000110: d6b2 5cbd eed9 32bd dc44 0e3d 4017 433c
00000120: 17e9 88bd 9146 6f3c c045 ad3b a1eb cc3c
00000130: 200a 4cbb 07b0 57bc 8f8d 90bd 6b7b a33c
00000140: a386 60bc e07c 84bb 8d59 90bd 9cfe 1bbd
00000150: 5b66 b2bc e8ad 0dbd a0e1 8bbd 0efb 65bd
00000160: 1a1d 8d3d 2f00 eebc 6402 b83c 2893 b0bd
00000170: 5410 cfbc 2a82 0ebd a847 20bd b6ca 40bd
00000180: afb6 193d 9b9f acbd 4796 0dbd 9f4e 0cbd
00000190: 760c 10be f8d3 5cbd 00d7 19ba fdd6 2a3c
000001a0: 619f 893c f878 6abc de38 e7bc b136 37bb
000001b0: 2df3 48bc 105c 7bbc 8e6f 2b3d 75eb 803c
000001c0: 21ac 293a 9b29 fcbd 006f 873b 6c68 21bd
000001d0: 2b48 05bd dd8d cbbc b975 66be 4e0c a3bc
000001e0: 0715 84bd afde c6bd 607f d6ba 051c a7bb
000001f0: ec8e 05bd 6bf1 43be 30af b0bc 7253 8abf
00000200: 9c1b c3bc c525 463c 6559 58bc 032e f8bc
00000210: 8eba 6cbd fc34 81bd ae95 69bc 7b29 8bbd
00000220: 588d fc3c fec9 49bd 9b5a 0d3b 6990 a1bd
00000230: 6ae4 a8bd 3f21 a6bd d747 35bd 90a2 963d
00000240: e08f 7ebb ecaa 0bbb 9db3 64bd 9b02 603c
00000250: 23d6 703d 41b1 a8bd 7f88 623d d32f 5cba
00000260: b268 8cbc 0bfe 283d fdb3 eb3c 14ce 083d
00000270: 549e 3dbd 3e5f 73bd 0819 1bbd 464b 023d
00000280: c07c 783b ddba a13d d6a9 1cbd 6da6 09bd
00000290: 18cc 1c3c e220 ea3b 2017 9fbd a4d0 423d
000002a0: 40dc 963b 7c86 50be 5331 99bd f88c 7abc
000002b0: 86f1 cf3c 43de bbbd 78a7 f4bc ae34 873d
000002c0: 288b 4bbd e922 04bc 93e8 dfbc 6a29 14bd
000002d0: f2a9 0e3d 8e04 823c 08f4 523d acea a1bd
000002e0: 3670 033d 9732 27bd 0ea0 353d 2d86 0fbb
000002f0: 6c4d 3e3d adb4 5b3c 13ff 8bbd f2d6 80bb
00000300: 1c44 f9bc ba0a 3bbd c27d 203d e4ea 34bd
00000310: 7876 0fbc 3ac5 22bd 5f76 be3c 610b 1a3d
00000320: 8d5f 61bd 0964 06bd 6a5b d0bc dee4 9dbc
00000330: 0fd6 50bd 4b44 893c 0b2f 74bc 5b0d 28bd
00000340: 685a 3e3c 158a 96bd 8abd 22bd 7dd8 993d
00000350: 1cf1 a2bd 429f 1bbd e045 01be f87a f33c
00000360: 680c 94ba 31ad 75bf ce37 66bc 9868 67bc
00000370: 6484 1138 8ec5 89bd 1b24 35bc 1991 04bd
00000380: a8ab ddbc 82fc 4f3c 7f14 8fbb 14ac bdbc
00000390: 001d 943c 78f9 1c3d 49c7 b8bc 7986 58bd
000003a0: 0a42 253d 4728 f5bb 4ee3 cfba 907b 033d
000003b0: f09f debc 181c 7a3b d77d 293d b668 e7bc
000003c0: 56ed 28bd 91b4 80bd 4ac4 483d d3f4 dabc
000003d0: 697f c6bc a946 353c 2214 193d 3683 17bd
000003e0: 5d81 1dbd a912 503c 6332 f03c 1e15 51bd
000003f0: bac7 32bd 9f9e 293d be2a 28bd 6e6f 123d

4.bias f4 [128]
-1.0681949 -1.009493 -0.14762314 -1.1508294 -0.1612355 -0.048537824 -0.2118636 -1.0694474
-0.91896474 -1.0615774 -0.6238688 -1.0172374 -0.29187632 -1.1330979 -0.99754673 -0.31293583
-0.24167952 -0.8298457 -0.61367893 -1.1205328 -0.20621577 -0.16709058 -0.27750573 -1.0917269
-1.0366409 -0.124746464 -0.89007694 -1.2200992 -0.65303385 -0.42250076 -0.08442197 -1.057807
-1.0987878 1.4450647 -0.43666857 -0.18302977 -0.17747726 -0.48504716 -0.18262619 -1.0716448
-0.7098599 -1.2350115 -1.1325989 -1.1333373 -1.0918375 -0.19664595 -1.0584211 -0.4085218
-0.16056392 -1.1259928 -1.4065568 -0.12611084 0.78123266 0.3692497 -1.000965 -0.96401757
-0.32010895 -0.46545753 -0.20537665 -0.7746397 -0.836435 -0.096948355 -0.63139737 -0.1760992
-0.7928197 -0.7106027 -1.0329357 1.3565028 -0.31798965 0.77339685 -0.4694033 -0.05544011
-1.0896865 -0.14170499 -1.0279452 -0.15069924 -0.30091456 -0.5079266 -0.26354924 -0.96072507
-1.0204437 -0.19015802 2.682268 -2.098559 -1.0108165 -1.1216567 -0.23101826 -1.0960351
-0.5455063 -0.6879444 -0.78741986 -0.2166174 -0.175419 -0.9053947 -0.33493614 -1.0415705
0.6090941 0.037036512 -0.33632496 -0.29435316 0.8056962 -1.1121056 -0.6016624 -0.29723287
-0.49865863 4.3658543 2.1175225 -0.53448445 -1.1135584 -0.3443542 -0.111764796 -0.1513007
1.4261036 0.99501324 -0.69887364 -1.0477388 -1.5208758 -0.15449487 -0.42032555 -1.0735282
-0.208341 -1.122277 -1.1658204 -0.27840012 -1.0612301 -0.45084837 -1.1010586 -1.236592
00000000: 9cba 88bf 1137 81bf 852a 17be 614e 93bf
00000010: eb1a 25be 99cf 46bd c6f2 58be a7e3 88bf
00000020: 4641 6bbf c5e1 87bf deb5 1fbf d634 82bf
00000030: d070 95be 5a09 91bf 395f 7fbf 2039 a0be
00000040: d67a 77be c570 54bf 101a 1dbf 9e6d 8fbf
00000050: 3a2a 53be cb19 2bbe 3b15 8ebe b5bd 8bbf
00000060: a6b0 84bf 137b ffbd 15dc 63bf 362c 9cbf
00000070: 3a2d 27bf 0552 d8be 6de5 acbd 3866 87bf
00000080: 14a5 8cbf e1f7 b83f 0693 dfbe 286c 3bbe
00000090: 99bc 35be 1a58 f8be 5c02 3bbe a82b 89bf
000000a0: 61b9 35bf db14 9ebf 00f9 90bf 3211 91bf
000000b0: 55c1 8bbf 8e5d 49be 587a 87bf c529 d1be
000000c0: de6a 24be 8820 90bf 0e0a b4bf 3323 01be
000000d0: ddfe 473f 4c0e bd3e 9f1f 80bf dbc9 76bf
000000e0: 52e5 a3be 7350 eebe 424e 52be ca4e 46bf
000000f0: 9b20 56bf dc8c c6bd 42a3 21bf 5953 34be
00000100: 3bf6 4abf 0fea 35bf 3d37 84bf e2a1 ad3f
00000110: 8acf a2be 56fd 453f a155 f0be 2b15 63bd
00000120: d97a 8bbf 1d1b 11be b593 83bf e750 1abe
00000130: 7911 9abe 7a07 02bf edef 86be 14f2 75bf
00000140: e69d 82bf c9b8 42be 47aa 2b40 ca4e 06c0
00000150: 6f62 81bf 7292 8fbf 0d90 6cbe e14a 8cbf
00000160: 4da6 0bbf 201d 30bf 5994 49bf f4d0 5dbe
00000170: 0aa1 33be f2c7 67bf c07c abbe 2f52 85bf
00000180: 97ed 1b3f 99b3 173d c932 acbe 75b5 96be
00000190: 1b42 4e3f 7a59 8ebf 8c06 1abf e82e 98be
000001a0: 2f50 ffbe 14b5 8b40 7d85 0740 f9d3 08bf
000001b0: 1589 8ebf 324f b0be f1e4 e4bd 92ee 1abe
000001c0: 908a b63f 30b9 7e3f 62e9 32bf 4e1c 86bf
000001d0: 0fac c2bf e733 1ebe e934 d7be 5f69 89bf
000001e0: 5857 55be c6a6 8fbf 9a39 95bf 768a 8ebe
000001f0: 63d6 87bf 99d5 e6be 7def 8cbf a648 9ebf

6.weight f4 [1, 128]
0.8996669 -0.6477803 -0.00940634 0.94381636 -0.20926109 -0.47567943 -0.11315194 0.8721202
-0.28534335 0.91656536 0.5009928 -0.87941265 -0.5437518 0.93247527 0.0039556576 -0.6534628
-0.22485788 0.59423655 -0.07461451 0.884455 -0.03655833 -0.037047904 -0.057869975 -0.5690367
0.9188394 0.04071405 0.4982705 -0.89756995 0.35134822 0.015436154 0.016563617 0.89740694
-0.93164504 -1.3535324 0.06645567 0.10363151 0.030221287 0.5000202 -0.04623359 -0.69156057
0.5363461 -0.69955873 0.8478775 0.83884037 0.7320405 -0.113153204 -0.8640688 0.11359221
-0.010161239 0.8764817 -0.93858373 0.012766041 -0.7264995 -0.46148977 0.9098545 0.5582336
-0.0120293535 -0.09985443 0.037165802 0.011768346 0.60928357 -0.033109084 0.66107255 -0.84335256
0.56386524 -0.068808995 0.89455646 -1.3612775 -0.56436557 -0.6694716 -0.72909606 -0.88756615
0.9004011 -0.053248044 0.87985885 -0.08273179 0.092381924 -0.21812709 0.013545306 0.8475788
0.938252 0.08903482 0.23872967 -0.045787744 0.7548979 0.9037906 -0.032205366 0.7507473
0.03458051 0.46394548 0.065918125 0.079077505 0.08706511 -0.8231 -0.577381 0.029846124
-0.38966924 -0.66122264 0.18627076 -0.0005436065 -0.6452794 -0.8764819 0.15805244 -0.5545785
0.3679873 -0.04059485 0.30951482 -0.38896933 0.9469889 -0.5895763 0.017719215 -0.09376999
0.08398844 -0.15419845 -0.3699541 0.9163395 -0.5929749 -0.009521979 -0.15520869 0.895163
-0.0074199704 -0.9474703 -0.89308786 -0.023844255 -0.91366565 -0.5940825 0.539765 0.8612825
00000000: 9250 663f eed4 25bf 0d1d 1abc f39d 713f
00000010: 8a48 56be 418c f3be 34bc e7bd 4543 5f3f
00000020: 8618 92be 07a4 6a3f 1041 003f 3021 61bf
00000030: 5133 0bbf b3b6 6e3f 769e 813b 5749 27bf
00000040: 2541 66be e31f 183f 7ecf 98bd a56b 623f
00000050: 30be 15bd 8bbf 17bd 1109 6dbd 64ac 11bf
00000060: 0f39 6b3f c7c3 263d 501d ff3e 25c7 65bf
00000070: eae3 b33e ece7 7c3c 6cb0 873c 76bc 653f
00000080: 4a80 6ebf 8d40 adbf e919 883d c23c d43d
00000090: a292 f73c 5301 003f 6f5f 3dbd 1d0a 31bf
000000a0: fa4d 093f 4816 33bf 800e 593f 3ebe 563f
000000b0: 0267 3b3f debc e7bd 9d33 5dbf 08a3 e83d
000000c0: 537b 26bc 1b61 603f 0647 70bf a828 513c
000000d0: dffb 39bf 6348 ecbe 39ec 683f 66e8 0e3f
000000e0: c416 45bc 7b80 ccbd 2b3b 183d 05d0 403c
000000f0: 02fa 1b3f 649d 07bd 0d3c 293f f4e5 57bf
00000100: 7959 103f bbeb 8cbd a701 653f 573e aebf
00000110: 437a 10bf 7e62 2bbf 0aa6 3abf 8937 63bf
00000120: b080 663f 9f1a 5abd 6e3e 613f 496f a9bd
00000130: bc32 bd3d b55c 5fbe 22ed 5d3c edfa 583f
00000140: 4831 703f e357 b63d 8d75 743e ee8b 3bbd
00000150: fd40 413f d25e 673f c6e9 03bd fa30 403f
00000160: 4ba4 0d3d 438a ed3e 1500 873d 63f3 a13d
00000170: 314f b23d aeb6 52bf 3ecf 13bf dc7f f43c
00000180: ba82 c7be e345 29bf c3bd 3e3e d180 0eba
00000190: 0831 25bf 1e61 60bf 80d8 213e dbf8 0dbf
000001a0: d568 bc3e c946 26bd ba78 9e3e fd26 c7be
000001b0: dd6d 723f 79ee 16bf e327 913c 7b0a c0bd
000001c0: 2202 ac3d 33e6 1dbe a06a bdbe 3a95 6a3f
000001d0: 34cd 17bf 1302 1cbc 07ef 1ebe 6729 653f
000001e0: 3923 f3bb 6a8d 72bf 68a1 64bf 0755 c3bc
000001f0: fee5 69bf ca15 18bf 0a2e 0a3f 037d 5c3f
